model_ann.tflite (tflite, 12752 bytes, 6 tensors)

arith.constant f4 [6, 32]
-0.14129385 0.3012162 0.09266363 0.7878978 0.9637547 -1.5224867 1.1146268 2.7734773
-0.78168595 -1.6655644 -1.2327982 1.1312934 0.25480902 -1.2598001 -0.37013334 0.2494366
0.47393507 0.424798 0.071414545 1.3205339 1.4564593 -1.1117017 0.56959426 0.12608956
-0.28535295 -0.6400903 -1.0971793 0.87537736 -0.2057737 0.62929684 -0.0040092394 0.7224795
-0.103672385 0.021907002 0.143613 -0.6264639 -0.3860404 0.78213 -0.4396601 -0.2875487
0.395555 0.69559413 0.29075235 -0.5040227 -2.8273077 0.31277987 -0.09357391 -0.62154037
-0.4761979 -0.25690356 0.32714996 -0.9945766 -0.10669065 0.63372755 -2.8619263 -2.667602
0.14402649 0.0004730216 0.54129475 -0.7169921 0.33294222 -0.63367295 -2.2733743 -0.38195303
0.24503967 -0.09624606 -0.34740192 -0.040517557 0.051615473 -0.024835743 0.44708478 -2.4638498
0.29986182 -0.4050183 0.30919546 0.28373754 0.19330002 -0.4009399 -0.042950816 0.31060496
0.42564544 0.11406688 -0.0314752 -0.59053737 -0.18420999 -0.4009159 -0.021086259 0.11356755
0.2592499 0.37035853 0.23059255 0.17465965 -0.2399195 0.39377064 0.25475246 -0.15601353
-0.13152534 -0.29413146 0.028600939 -2.5689147 -0.14068936 0.5836008 -0.82665807 0.048983194
0.05370871 0.115520306 0.5095622 -1.0114585 -0.08541636 0.13280338 0.19287585 -0.38481292
-1.6870198 -0.025542833 0.037533823 -1.1397648 -0.96982706 0.16977699 0.05755565 -0.15553567
-0.24349469 0.49425906 0.67131364 -3.03392 0.11075361 -2.0911493 0.0052164015 -2.3402736
0.23620126 -0.10264343 0.26824445 -0.5239226 -2.345458 0.13175642 -2.4043458 -0.45554054
0.49869558 -0.13301007 -0.005229247 -2.546854 0.20784922 0.22284356 -0.16748336 0.3030962
0.16072409 -0.16538025 0.24126606 -3.216977 -3.0058932 0.57755363 0.18820111 0.3378682
0.099835396 -0.00089894625 -0.048181467 -0.14745392 0.13342947 0.14219469 0.11192369 -0.10164182
0.38933012 -0.3220325 0.34572983 -0.6846367 -0.17020078 0.87328494 0.024780307 -0.051318005
0.013691752 0.5605359 0.50198674 -0.25481597 -0.86764705 0.40785775 -0.15109324 -2.5747583
-1.5843116 -2.4000525 0.23704782 -0.6153033 -0.45293698 0.34075972 -0.22790354 -0.93443316
-0.08420849 0.57923687 0.006223821 -1.3170202 0.25753626 -1.2731388 -1.0187496 -1.1953925
00000000: 56af 10be 0339 9a3e 6ec6 bd3d acb3 493f
00000010: a1b8 763f d8e0 c2bf 17ac 8e3f a780 3140
00000020: 921c 48bf 3731 d5bf 55cc 9dbf 39ce 903f
00000030: 5476 823e 2141 a1bf 1e82 bdbe 4f6c 7f3e
00000040: 9ea7 f23e 207f d93e ca41 923d 4107 a93f
00000050: 426d ba3f 3e4c 8ebf eed0 113f 9f1d 013e
00000060: c819 92be f5dc 23bf 5f70 8cbf bb18 603f
00000070: 57b6 52be 9919 213f f05f 83bb 6bf4 383f
00000080: 3052 d4bd 5076 b33c 490f 133e f05f 20bf
00000090: 16a7 c5be ac39 483f 211b e1be 9539 93be
000000a0: 2f86 ca3e 7512 323f 7edd 943e a207 01bf
000000b0: 9cf2 34c0 af24 a03e aea3 bfbd 451d 1fbf
000000c0: 36d0 f3be dd88 83be 3380 a73e 929c 7ebf
000000d0: a180 dabd f83b 223f cd29 37c0 feb9 2ac0
000000e0: ae7b 133e e2ff f739 4b92 0a3f cb8c 37bf
000000f0: 6777 aa3e 6438 22bf f77e 11c0 598f c3be
00000100: aeeb 7a3e a81c c5bd aade b1be bdf5 25bd
00000110: bf6a 533d 5474 cbbc 4ce8 e43e b7af 1dc0
00000120: 7d87 993e 8f5e cfbe de4e 9e3e 0c46 913e
00000130: 71f0 453e ff47 cdbe 32ed 2fbd 9d07 9f3e
00000140: 33ee d93e e59b e93d 24ec 00bd 752d 17bf
00000150: 8ba1 3cbe d944 cdbe 17bd acbc 1b96 e83d
00000160: 67bc 843e a29f bd3e 7420 6c3e fbd9 323e
00000170: 75ad 75be 4e9c c93e ea6e 823e 03c2 1fbe
00000180: 94ae 06be 6698 96be 844c ea3c 1969 24c0
00000190: df10 10be dd66 153f dd9f 53bf 9aa2 483d
000001a0: aafd 5b3d e995 ec3d ab72 023f 7977 81bf
000001b0: c6ee aebd 9cfd 073e 3f81 453e 3306 c5be
000001c0: 44f0 d7bf 343f d1bc 11bd 193d d0e3 91bf
000001d0: 9646 78bf 05da 2d3e 79bf 6b3d be44 1fbe
000001e0: ac56 79be 860f fd3e 36db 2b3f bf2b 42c0
000001f0: cad2 e23d 64d5 05c0 59ee aa3b 0bc7 15c0
00000200: bede 713e b836 d2bd 5657 893e cb1f 06bf
00000210: fc1b 16c0 28eb 063e cde0 19c0 9c3c e9be
00000220: 0755 ff3e cb33 08be 1a5a abbb a8ff 22c0
00000230: 6dd6 543e 1a31 643e c280 2bbe 6d2f 9b3e
00000240: db94 243e 7159 29be 730e 773e f3e2 4dc0
00000250: 8e60 40c0 8eda 133f cbb7 403e 10fd ac3e
00000260: 8076 cc3d 43a7 6bba ee59 45bd 29fe 16be
00000270: bca1 083e 7c9b 113e 3f38 e53d 9629 d0bd
00000280: 4756 c73e 72e1 a4be 8003 b13e 5a44 2fbf
00000290: 1d49 2ebe 9a8f 5f3f 1200 cb3c d432 52bd
000002a0: 5f53 603c 487f 0f3f 3482 003f 3d77 82be
000002b0: 1e1e 5ebf bbd2 d03e 30b8 1abe d7c8 24c0
000002c0: b9ca cabf 769a 19c0 aabc 723e 8484 1dbf
000002d0: 5be7 e7be 0f78 ae3e 8c5f 69be 0337 6fbf
000002e0: 8075 acbd de48 143f 32f1 cb3b 1e94 a8bf
000002f0: cbdb 833e 36f6 a2bf 6366 82bf 9f02 99bf

arith.constant1 f4 [32, 64]
-0.1457659 -0.20042545 -0.011616945 -0.2459876 0.04871893 0.13181233 -0.15009785 0.23594868
-0.01620555 -0.09487629 -0.091756165 -0.13499719 0.001573503 0.17069036 -0.19974846 -0.18494385
-0.19822264 0.06317538 0.12981337 -0.15558803 0.17217207 0.1772148 -0.1731515 -0.11925316
-0.23238117 0.04052925 -0.079345524 0.08904952 -0.084751844 0.08315098 0.15224957 -0.21463817
0.24634606 0.10495919 -0.2457161 0.13578135 -0.15805334 0.20695555 -0.17048049 0.010739028
-0.0072773695 -0.073828876 0.042518616 -0.15861607 -0.06461847 -0.009097695 -0.07512134 0.19047719
-0.13070387 -0.14382899 0.06348407 -0.22927302 -0.16921598 -0.23784792 0.023714602 0.21890986
0.102930546 -0.07809132 -0.0142431855 -0.21364945 -0.15113956 0.17837965 -0.22982872 0.00984031
0.028534532 -0.1649456 -0.16902274 0.09616548 -0.20036793 -0.03401029 0.15088177 -0.16780394
0.2480821 -0.07401717 -0.08443636 -0.23676664 -0.19387048 0.072948515 0.021234214 -0.048139453
-0.05465734 0.19150937 0.006531894 -0.045160115 -0.21452016 0.006661892 -0.2449212 -0.2314977
0.056996822 -0.053731322 0.08342296 -0.22985029 0.088582814 0.07913995 -0.11768973 -0.19226038
-0.0045139194 -0.040177822 -0.21339536 0.14987439 0.05497688 0.21024537 -0.18057144 0.08967811
-0.03569168 0.09422541 -0.0026770234 -0.22557002 0.124956906 -0.09934151 0.033354342 -0.13338727
-0.1340316 0.20401078 -0.17386031 -0.24043947 -0.04607427 0.19968635 -0.20134628 -0.16905129
-0.20590723 0.08482486 0.08989835 -0.16943842 -0.1436289 0.06838226 0.057054937 -0.1155681
-0.07515546 -0.25076663 0.09974918 -0.2277241 -0.13657674 -0.16659485 0.14376983 0.15239027
-0.0027464286 -0.10548132 -0.076392934 -0.2720302 0.008100604 0.117806114 -0.14920421 0.04104048
-0.24858613 0.14672938 -0.24952485 -0.10627246 -0.21241504 -0.2119801 0.045897126 -0.08858627
-0.09988277 0.078060426 -0.2522783 -0.11759496 0.055109978 -0.067995116 -0.0990348 0.059003938
0.0065954016 0.046790153 0.22295289 0.1653806 -0.097320385 -0.123824365 0.18076712 0.07344414
0.1938923 -0.07706434 -0.007446401 -0.21339676 -0.18704343 -0.16454501 -0.19920763 -0.1437234
0.051193893 -0.21847363 -0.05316585 0.19108294 0.10234034 -0.23340829 0.05332762 0.12312764
-0.15746711 0.11352992 0.23892027 0.17029607 -0.21170534 0.010323636 -0.070542015 -0.13389648
0.53343916 -0.16725644 0.6179429 0.13665748 -0.25590008 0.50836664 0.69680834 0.55039966
-0.7249468 0.34907883 -0.37390783 0.5253191 0.9436892 0.035764556 0.4652148 0.7498242
-0.15388511 0.33372688 0.08007643 -0.028236806 0.40665257 0.16950631 -0.4254186 -0.6071345
0.66218597 0.87740886 0.051461533 0.22057986 -0.21233231 0.62349284 -0.20320861 0.41545862
0.46383598 0.60353 0.39204204 0.72870433 0.14256516 0.6469593 0.39832318 0.2126606
0.25369692 0.4200654 0.106004104 -0.2496031 0.48229295 -0.34558624 0.22256917 -0.29759505
0.73282045 0.30875096 0.6058905 0.31791142 -0.10910521 0.110938676 0.61847335 -0.08994669
0.433816 0.32810104 -0.30934572 0.27809727 -0.59773165 0.6238614 -0.41479433 -0.52874714
00000000: a843 15be 543c 4dbe 0055 3ebc 2ce4 7bbe
00000010: 808d 473d d0f9 063e 40b3 19be 889c 713e
00000020: 80c1 84bc 804e c2bd a8ea bbbd b43c 0abe
00000030: 003e ce3a 74c9 2e3e dc8a 4cbe ec61 3dbe
00000040: e0fa 4abe 1862 813d cced 043e 7852 1fbe
00000050: e04d 303e cc77 353e a04e 31be 003b f4bd
00000060: 54f5 6dbe 0002 263d e87f a2bd 985f b63d
00000070: 6092 adbd 104b aa3d 50e7 1b3e 1cca 5bbe
00000080: 2442 7c3e d8f4 d63d 009d 7bbe 440a 0b3e
00000090: bcd8 21be 28ec 533e 7092 2ebe c0f2 2f3c
000000a0: 0077 eebb 9833 97bd 0028 2e3d 406c 22be
000000b0: b056 84bd 800e 15bc 38d9 99bd 740c 433e
000000c0: 3cd7 05be e847 13be f003 823d 8cc6 6abe
000000d0: f446 2dbe 688e 73be 2045 c23c e829 603e
000000e0: 40cd d23d 58ee 9fbd 405c 69bc ecc6 5abe
000000f0: 54c4 1abe 28a9 363e 3858 6bbe 4039 213c
00000100: 40c1 e93c 80e7 28be 4c14 2dbe 68f2 c43d
00000110: 402d 4dbe 604e 0bbd c080 1a3e ccd4 2bbe
00000120: 3c09 7e3e 5096 97bd f8ec acbd f472 72be
00000130: fc85 46be 0866 953d 60f3 ad3c e02d 45bd
00000140: 60e0 5fbd 081b 443e 8009 d63b d0f9 38bd
00000150: 2cab 5bbe 004c da3b a0cc 7abe bc0d 6dbe
00000160: 8075 693d 6015 5cbd a8d9 aa3d e05d 6bbe
00000170: e86a b53d 2014 a23d 5007 f1bd e8df 44be
00000180: 80e9 93bb 8091 24bd 5084 5abe ac78 193e
00000190: 702f 613d 904a 573e b8e7 38be 28a9 b73d
000001a0: 7031 12bd 40f9 c03d 0071 2fbb d4fb 66be
000001b0: 68e9 ff3d 9073 cbbd 909e 083d ac96 08be
000001c0: 943f 09be 34e8 503e 7008 32be c435 76be
000001d0: 60b8 3cbd 947a 4c3e b82d 4ebe c81b 2dbe
000001e0: 58d9 52be a8b8 ad3d a01c b83d 4481 2dbe
000001f0: 7413 13be 000c 8c3d 70b2 693d f8ae ecbd
00000200: 1beb 99bd 7c64 80be 4c49 cc3d 8230 69be
00000210: c6da 0bbe d797 2abe 6638 133e 320c 1c3e
00000220: 6dfd 33bb 9706 d8bd e673 9cbd 8b47 8bbe
00000230: 65b8 043c 5544 f13d fdc8 18be 101a 283d
00000240: 5d8d 7ebe 3a40 163e 7183 7fbe 60a5 d9bd
00000250: 5483 59be 5011 59be a0fe 3b3d b86c b5bd
00000260: 568f ccbd 25de 9f3d 9f2a 81be a0d5 f0bd
00000270: 00bb 613d 0641 8bbd c2d2 cabd 1dae 713d
00000280: 3d1e d83b 08a7 3f3d c34d 643e 8859 293e
00000290: e94f c7bd a197 fdbd 041b 393e e269 963d
000002a0: b48b 463e e9d3 9dbd f000 f4bb ae84 5abe
000002b0: 5088 3fbe 7d7e 28be 16fd 4bbe 3a2c 13be
000002c0: b0b0 513d 8db7 5fbe 6fc4 59bd 3fab 433e
000002d0: d097 d13d 9502 6fbe 106e 5a3d 582a fc3d
000002e0: 0f3f 21be 6082 e83d 84a7 743e 1862 2e3e
000002f0: 49c9 58be 7824 293c 5578 90bd 291c 09be
00000300: 788f 083f 4645 2bbe 8231 1e3f f0ef 0b3e
00000310: 5605 83be 5124 023f 0862 323f fee6 0c3f
00000320: 1d96 39bf 76ba b23e d970 bfbe 507b 063f
00000330: 9e95 713f db7d 123d a230 ee3e 7bf4 3f3f
00000340: 0f94 1dbe 40de aa3e 1dff a33d e050 e7bc
00000350: c434 d03e 1093 2d3e 77d0 d9be 2b6d 1bbf
00000360: 0585 293f de9d 603f 54c9 523d b0df 613e
00000370: a46d 59be 3a9d 1f3f eb15 50be feb6 d43e
00000380: e97b ed3e f180 1a3f bcb9 c83e 5e8c 3a3f
00000390: 9afc 113e 209f 253f 04f1 cb3e b3c3 593e
000003a0: 90e4 813e d012 d73e ae18 d93d f497 7fbe
000003b0: 1aef f63e aef0 b0be 2ce9 633e 615e 98be
000003c0: 1f9a 3b3f 9b14 9e3e a41b 1b3f 49c5 a23e
000003d0: 8d72 dfbd d133 e33d 4554 1e3f f835 b8bd
000003e0: 211d de3e dcfc a73e 9062 9ebe c462 8e3e
000003f0: f104 19bf 61b5 1f3f ec5f d4be f95b 07bf

arith.constant2 f4 [6]
-0.15067807 -0.19188313 0.16111994 0.075681716 0.0433342 -0.027685968
00000000: 5a4b 1abe 037d 44be a0fc 243e 04ff 9a3d
00000010: 347f 313d afcd e2bc

sequential_1/dense_1_2/BiasAdd/ReadVariableOp f4 [32]
0.0 0.0 -0.024041485 0.24959944 0.12667374 0.2538816 0.13550557 -0.085862316
0.19387183 0.2901618 0.23939249 0.14515164 0.3775679 0.24542208 -0.03226276 0.32273751
0.24694654 0.22012243 -0.021849694 0.10809791 0.13921784 0.13262935 0.1473085 0.3135604
0.0 0.18431763 0.17440028 0.2837118 -0.0136178695 0.23664056 0.3322035 0.1451468
00000000: 0000 0000 0000 0000 a6f2 c4bc ff96 7f3e
00000010: c3b6 013e c5fc 813e f9c1 0a3e 95d8 afbd
00000020: 5686 463e 1690 943e 4e23 753e a2a2 143e
00000030: 9450 c13e ed4f 7b3e f525 04bd da3d a53e
00000040: 8edf 7c3e c667 613e 21fe b2bc 7062 dd3d
00000050: 1f8f 0e3e fdcf 073e 0ad8 163e fd8a a03e
00000060: 0000 0000 c3bd 3c3e fd95 323e ac42 913e
00000070: 7c1d 5fbc e751 723e 9416 aa3e 5da1 143e

sequential_1/dense_1/BiasAdd/ReadVariableOp f4 [64]
0.3067053 0.014737892 0.18777192 0.14040476 0.21772158 0.15293641 0.35822406 0.40033308
0.061728038 0.24252059 0.03693722 0.25008753 0.26320764 0.25205055 0.07682206 0.3029053
0.26431933 0.30932233 -0.021353815 0.0 0.43695801 0.0 0.107323095 0.016752904
0.22709301 0.390706 0.31290132 0.0 0.0 0.2616096 0.11692241 0.13329653
0.43182933 0.30797803 0.15676898 0.24292408 0.394358 0.30811924 0.41230434 0.26551774
0.6489644 0.2746691 0.2275025 0.12351089 0.30403545 0.0011276817 0.39131764 0.025781842
0.27832597 0.6293116 0.2710175 0.29503798 0.2134947 0.44723928 0.21803664 0.0
0.18846905 0.53092504 0.062344123 0.1600512 0.07340614 0.17730016 -0.018214457 0.003514648
00000000: 7a08 9d3e 3377 713c 4847 403e 44c6 0f3e
00000010: 68f2 5e3e 5d9b 1c3e 2569 b73e 75f8 cc3e
00000020: 8ad6 7c3d 5157 783e 7b4b 173d 790b 803e
00000030: 27c3 863e c50c 813e e254 9d3d 6716 9b3e
00000040: dd54 873e 7f5f 9e3e 32ee aebc 0000 0000
00000050: f6b8 df3e 0000 0000 36cc db3d 633d 893c
00000060: 128b 683e 9e0a c83e 9a34 a03e 0000 0000
00000070: 0000 0000 b2f1 853e 0475 ef3d e37e 083e
00000080: bc18 dd3e 4caf 9d3e 0c88 203e 17c1 783e
00000090: 4be9 c93e cec1 9d3e 8e19 d33e f1f1 873e
000000a0: 8822 263f 6ea1 8c3e 6af6 683e 47f3 fc3d
000000b0: 89aa 9b3e b8ce 933a c95a c83e 7134 d33c
000000c0: be80 8e3e 911a 213f cec2 8a3e 380f 973e
000000d0: 5b9e 5a3e 8cfc e43e ff44 5f3e 0000 0000
000000e0: 08fe 403e b4ea 073f 8d5c 7f3d 76e4 233e
000000f0: f555 963d 2c8e 353e 7c36 95bc 0256 663b

sequential_1/dense_1/MatMul f4 [64, 5]
0.30649883 0.0016745924 0.08465894 -0.06841954 -1.5058551 0.28850797 -0.014992731 0.21481378
0.13349323 2.074701 0.041325625 0.15350948 -0.006824333 0.22464235 -1.7742951 -0.22117202
0.02748337 0.2997933 -0.1799409 1.2865499 0.34307224 0.28653163 0.22630413 0.044061065
2.002976 -0.051096868 0.0362552 0.12313086 0.21257906 -1.3939426 -0.059685238 0.2000338
-0.0033783903 -0.104496285 -1.188477 -0.05446604 -0.08712277 0.3167033 0.060267497 -1.4853047
0.14862897 0.14121974 0.06134424 -0.068953045 2.1806552 0.17315508 0.15059179 -0.115762725
0.121818766 -1.4839671 0.17341354 0.37445298 0.05600931 -0.07946488 1.7229348 0.16208547
0.25709897 -0.14575897 0.24128777 -1.3042799 0.15405703 0.27152026 -0.05977949 -0.011930259
-1.9291029 0.2800062 0.26471743 0.082353935 -0.14398302 1.5262051 -0.067516506 0.23285878
-0.015384391 0.23889586 -1.5805846 0.0011216484 0.12579457 -0.041912097 -0.0033838553 -1.4477214
0.21301706 0.0076166005 -0.006268858 0.33244985 1.1285878 -0.07828238 0.09382822 0.013726085
0.20958635 -1.011017 -0.043874253 -0.0669374 0.052211806 -0.29814136 -0.08857319 -0.009479821
-0.22718292 -0.17602625 -0.2856943 -0.040496707 0.31484556 -0.6059053 -0.15991586 0.044859614
0.1280049 -0.11242221 -0.12857877 -0.21556659 -0.28099865 -0.1601841 0.2853119 0.022435827
0.0071290876 0.12875484 2.1439831 -0.014503154 0.04694518 0.047568224 0.25704908 2.0878458
-0.027254254 0.14657101 0.22894028 -0.024089852 -1.6486515 0.080057554 0.013894175 0.19183724
-0.11936771 -1.5163493 -0.17070733 0.063852906 0.24494566 0.21275523 1.4368896 -0.10590248
-0.04872726 -0.24904664 -0.15300503 -0.031722695 -0.07571611 -0.14568916 -0.23539767 -0.14621167
0.015760034 0.20841672 0.16559473 -0.11711606 0.1577979 -1.4542819 -0.076566815 -0.057073828
0.2967095 0.12146794 1.5338643 -0.015594342 0.1354649 0.16932677 -0.033813406 -1.773784
-0.16875926 0.3057082 -0.1177382 0.08254275 -1.1417665 -0.057360336 0.065674394 -0.093376026
0.23883858 -1.6809739 -0.07577981 0.18617125 0.19694145 0.07672537 -1.3703307 0.11190578
0.19740978 0.009203626 -0.05926821 -1.9060233 0.0662811 0.27905667 0.2585274 0.016746087
0.3316498 0.02845728 0.059970435 0.12299299 -0.03511518 -1.7732953 -0.11902738 -0.10583201
0.09812334 0.22683628 -1.4560579 0.10313049 -0.42085844 0.08223923 -0.016618598 0.16848172
-0.037958156 -0.1521167 -0.33605802 -0.1344259 -0.20359883 -0.118339606 0.17399043 0.17082423
0.01691086 -0.98801094 0.2664206 0.28877744 0.07401821 -0.2338589 -0.8767322 0.18455854
0.12767941 0.32609525 0.28607967 2.0848997 0.19303453 -0.0069644134 -0.10710487 0.31298536
-1.8545448 0.11629555 0.16507547 -0.009777125 0.29385415 2.0061908 -0.043806046 -0.16037098
0.07007118 -0.1354559 0.89221054 -0.027299056 0.117603004 0.07654962 0.09283015 1.996928
0.012122877 -0.06916553 0.14021699 0.19412528 -1.7905233 -0.52076954 -0.053440906 -0.03874444
-0.032597646 -0.29625764 0.29247 0.11882642 0.0012324179 -0.05902034 -1.2923731 0.08643191
00000000: 6aed 9c3e ff7d db3a ab61 ad3d 8b1f 8cbd
00000010: dcbf c0bf 51b7 933e 12a4 75bc 25f8 5b3e
00000020: 73b2 083e e7c7 0440 0f45 293d 9731 1d3e
00000030: a89e dfbb a508 663e 1a1c e3bf eb7a 62be
00000040: ce24 e13c 827e 993e 6d42 38be abad a43f
00000050: 2aa7 af3e 46b4 923e 45bc 673e 6079 343d
00000060: c230 0040 f34a 51bd 5580 143d 082c fc3d
00000070: 53ae 593e b66c b2bf 8278 74bd a9d5 4c3e
00000080: fc67 5dbb 2602 d6bd 0420 98bf c817 5fbd
00000090: 6c6d b2bd ef26 a23e 0ddb 763d 771e bebf
000000a0: 3132 183e e89b 103e 1944 7b3d 4137 8dbd
000000b0: db8f 0b40 914f 313e bc34 1a3e 0215 edbd
000000c0: 1e7c f93d a2f2 bdbf 5293 313e 4db8 bf3e
000000d0: 056a 653d 7cbe a2bd 2189 dc3f bcf9 253e
000000e0: 7aa2 833e d741 15be 2414 773e a5f2 a6bf
000000f0: 20c1 1d3e b404 8b3e 57db 74bd 2277 43bc
00000100: d8ec f6bf f95c 8f3e 0b89 873e 2ea9 a83d
00000110: 4970 13be b05a c33f 1846 8abd 8872 6e3e
00000120: d00e 7cbc 1ea1 743e 9950 cabf 4604 933a
00000130: 4bd0 003e 05ac 2bbd acc3 5dbb ef4e b9bf
00000140: 2521 5a3e ad94 f93b fe6a cdbb de36 aa3e
00000150: 9175 903f 8352 a0bd 0329 c03d 60e3 603c
00000160: ce9d 563e 0169 81bf 7db5 33bd 7a16 89bd
00000170: 0cdc 553d fca5 98be dc65 b5bd 4051 1bbc
00000180: a4a2 68be 3a40 34be 8646 92be e0df 25bd
00000190: 7033 a13e 9c1c 1bbf fcc0 23be b7be 373d
000001a0: b713 033e 9e3d e6bd 27aa 03be 7dbd 5cbe
000001b0: 0edf 8fbe 4d07 24be 6714 923e 57cb b73c
000001c0: 1f9b e93b 4fd8 033e 0537 0940 a39e 6dbc
000001d0: 9749 403d e6d6 423d f09b 833e 449f 0540
000001e0: 5044 dfbc b616 163e 526f 6a3e 1558 c5bc
000001f0: 0307 d3bf 37f5 a33d 65a4 633c fb70 443e
00000200: 0f77 f4bd bc17 c2bf e7cd 2ebe 50c5 823d
00000210: 09d3 7a3e 82dc 593e 00ec b73f 66e3 d8bd
00000220: 3c96 47bd 1506 7fbe 5aad 1cbe a8ef 01bd
00000230: 0c11 9bbd 8a2f 15be 160c 71be 83b8 15be
00000240: 301b 813c 316b 553e aa91 293e 8bda efbd
00000250: c695 213e e925 babf 10cf 9cbd 3fc6 69bd
00000260: 4fea 973e 2fc4 f83d aa55 c43f 697f 7fbc
00000270: 50b7 0a3e ff63 2d3e ed7f 0abd 5b0b e3bf
00000280: 3acf 2cbe c985 9c3e ba20 f1bd 2c0c a93d
00000290: 6825 92bf acf2 6abd 4c80 863d ee3b bfbd
000002a0: 1a92 743e 272a d7bf 7232 9bbd ada3 3e3e
000002b0: 05ab 493e 3122 9d3d ff66 afbf dc2e e53d
000002c0: ca25 4a3e ceca 163c 39c3 72bd 92f8 f3bf
000002d0: 63be 873d 84e0 8e3e b45d 843e 172f 893c
000002e0: 01ce a93e 3e1f e93c 8fa3 753d c0e3 fb3d
000002f0: efd4 0fbd 57fb e2bf a1c4 f3bd 74be d8bd
00000300: e4f4 c83d c547 683e 1b60 babf 1436 d33d
00000310: c27a d7be 0b6d a83d ba23 88bc 7986 2c3e
00000320: 037a 1bbd 7bc4 1bbe cc0f acbe f1a6 09be
00000330: 367c 50be 095c f2bd 8c2a 323e 8cec 2e3e
00000340: a588 8a3c 49ee 7cbf 4868 883e a3da 933e
00000350: dc96 973d b578 6fbe 8571 60bf eafc 3c3e
00000360: 64be 023e f5f5 a63e 0979 923e ff6e 0540
00000370: d8aa 453e bc35 e4bb cc59 dbbd 9e3f a03e
00000380: b961 edbf 5c2c ee3d 8b09 293e 3c30 20bc
00000390: 0d74 963e 6e65 0040 f86d 33bd 4a38 24be
000003a0: 7b81 8f3d f4b4 0abe e967 643f 45a2 dfbc
000003b0: d8d9 f03d 0cc6 9c3d bc1d be3d 569b ff3f
000003c0: 089f 463c a8a6 8dbd 0b95 0f3e c7c8 463e
000003d0: de2f e5bf 2751 05bf dae4 5abd 7db2 1ebd
000003e0: 1c85 05bd 15af 97be a1be 953e 445b f33d
000003f0: 1589 a13a 50bf 71bd 7b6c a5bf 3703 b13d
